data.pth (torch, 4906 bytes, 6 tensors)

l1.weight f4 [8, 41]
00000000: 6c2c bebd d372 ec3e e725 943e 08b6 b93e
00000010: 22fb c43e c99b 3d3f 74d4 adbe b5cf 31be
00000020: 5017 193f 2f72 083e 4a97 85be d56f a63e
00000030: 3217 813e 30e5 e9be 2efd 46be e73b 293e
00000040: ef27 413e 63b3 543e 6393 1bbe 5898 483f
00000050: 8813 7d3f 5257 d1bc 9e65 48be 88e2 1cbe
00000060: 29a6 93bd e6cb 663e d654 863e 293d 503e
00000070: 3e60 c6bd 6649 f23e 900b 6cbe 934a 1dbe
00000080: 1cab e33d 39c7 7cbe efef 973e 54e0 3f3e
00000090: 3998 ff3e 9130 aabd c4ce 72bc 8e69 62be
000000a0: e1d8 123e 128a b53e 2d40 47bd 40d2 26bf
000000b0: 49fa 98be 1aa0 5c3e 4e94 6c3d f19e 373f
000000c0: 9f03 043f 017e 133e 7bb8 85bc fbdf e03b
000000d0: 3c49 5a3c b569 6fbc 6aec 183f d192 a53e
000000e0: ed33 ec3d bcb9 28be b7d5 adbd cfb3 2bbf
000000f0: 89ef a03d e57e 7a3e 33e3 53bd c06d a4bd
00000100: 2ac6 25be 9de0 84bd ced8 8e3b 2761 c83d
00000110: c211 8ebe 2e46 82bd 882e 21bc aef4 053f
00000120: 4eb0 80be cade b4be 9606 3a3f 7c66 87be
00000130: 0ed3 3e3d 258c 853e 061c c43e dda2 743e
00000140: 472e 5f3d dd2e e0bd 3130 993c e5e9 84be
00000150: d3a4 97bd ee23 fa3d 8a49 7ebe bfa8 f33e
00000160: d66a 803e b59c 813e d575 e03e bee0 093c
00000170: 0f58 c7bc ae41 d9bd 9683 64bb 56ac a53e
00000180: c5cf 1e3e b0f5 2ebe cfa8 5bbe 60b2 70bd
00000190: 18fe 25bf 3c3a 88be b93d 293f 9263 22be
000001a0: c194 55be 3702 6ebd b319 213d 8c57 8abd
000001b0: d000 7fbd bd3c 593e c0ed 98bc 7ace 49be
000001c0: 48bc 303e 1b0e 95bd 0be1 3f3e d85a 883e
000001d0: 3122 493e 6877 f3bd 5352 db3e 4d09 2e3f
000001e0: 95ef d2bc 5394 c73d 047e 3c3d b0fd 183e
000001f0: 1842 d63d de35 203f 65b0 1e3f a360 583e
00000200: c23e 89bd a7a1 4c3e 6991 513e cd98 bcbe
00000210: 3e00 80bd ce66 d93e 6447 26be cdc4 04be
00000220: a255 613e 0320 983e 521e dabc eba3 e13e
00000230: 67a4 a1bd 1ce3 493f c4bb 0a3e 0331 2fbf
00000240: 4df8 033f 55ed 9e3e 31cc 883e 352b 143f
00000250: 1a41 103e 3562 803e eaaa cc3e 4eca 023f
00000260: bf42 813e aba8 e13d 5612 fd3e 3dc2 023f
00000270: 4a46 713e 9e1f 003f 85c0 57bd a6f9 babe
00000280: d8d3 23bf cb26 163e 5b71 103f 7c06 0a3f
00000290: 03f9 ec3d 207c 073f 1765 06bf 6194 89be
000002a0: 2f76 c73e 5805 e13c 0c32 1c3d 0d7c e73d
000002b0: e3e4 a9bd b72c 753e 0b2f aa3e bea7 db3e
000002c0: 9368 1c3e 3815 d13d fffe 8abd c8fb d33e
000002d0: 57be 013f 3cd0 ea3e ed64 2e3f d422 9c3e
000002e0: 5260 86be d127 083e 2fd9 b23e 8230 e43e
000002f0: f677 883e 59b3 823e 6d4c cc3e 3b76 a2bc
00000300: 7382 d03e 0bc7 ee3e 2164 f33d 0083 a73e
00000310: ca5e 75be 1dc8 b53d dfae efbd cb4c 443e
00000320: 554e 9cbd 10e4 9bbe 8c5c 55bc 1c20 193e
00000330: 41f2 2abe 2eea 16be a302 123f 2d37 513f
00000340: b15b 3a3f c980 c03e 477e c83e 470a d1be
00000350: 6503 5ebe a970 8f3e f037 083e 09f2 84be
00000360: 457b b93d a4c7 113e 3c4b 07bf f4fa 9cbe
00000370: 7719 a33e 0b56 8c3e cfc8 a03e 8373 f23e
00000380: 9d02 fd3e 2127 d13e 0e68 bf3d 73d6 543c
00000390: 4b76 33bc 7fb6 babd 16ce 923e bfd1 4e3e
000003a0: 86d5 103f c87c 43bd b654 b43e 41f8 09be
000003b0: c8d8 bdbd e1a3 273f 6aa1 07bf b066 0f3f
000003c0: b764 863e e219 e93e eeb3 a7bd 8bac 7dbe
000003d0: 89cc 40be c6b4 ec3e 8914 343e 38bd 9fbe
000003e0: b888 5f3f f5a3 303f 837a 4cbe 6f49 08be
000003f0: c3aa 30be 9d45 10be 027c 183e a9cd 0bbe
-0.092858166 0.46181354 0.28935167 0.3627169 0.3847285 0.74065834 -0.3395115 -0.1736439
0.598012 0.13324808 -0.26091987 0.32507196 0.2521301 -0.4568267 -0.19432518 0.16526757
0.1886289 0.20771556 -0.15192942 0.7835746 0.9885793 -0.025554333 -0.19570014 -0.1532079
-0.07209427 0.22538719 0.262366 0.20335831 -0.096863255 0.47321624 -0.23051286 -0.15360479
0.11116621 -0.24685372 0.29675242 0.18737918 0.49920824 -0.083100446 -0.014819805 -0.22110578
0.14340545 0.35456902 -0.048645187 -0.65164566 -0.29878452 0.21545449 0.057758622 0.717269
0.51568025 0.14403535 -0.016323319 0.006862638 0.0133231245 -0.014612605 0.5973574 0.32338575
0.115333416 -0.16477102 -0.084880285 -0.6707124 0.07858188 0.24462469 -0.051730346 -0.08028746
-0.16188875 -0.06488154 0.004359341 0.09784155 -0.27747923 -0.06361042 -0.009837754 0.52326477
-0.2513451 -0.35326225 0.726663 -0.26445377 0.046587996 0.26083484 0.3830263 0.23890252
0.054487493 -0.109464385 0.018699737 -0.25959697 -0.074044846 0.12213884 -0.2483274 0.4758968
0.2508151 0.2531487 0.438399 0.008415399 -0.024333982 -0.106082305 -0.003486847 0.32358044
0.15508945 -0.1708591 -0.21451114 -0.05876386 -0.6484084 -0.2660693 0.66109806 -0.15858296
-0.20857526 -0.05810758 0.03933115 -0.067549795 -0.062256634 0.21214576 -0.018668056 -0.19707671
0.17259324 -0.07278081 0.18738191 0.26631808 0.19641949 -0.11888009 0.42836246 0.6798294
-0.025749007 0.097450875 0.046018615 0.14940524 0.10461825 0.62582195 0.61987907 0.21130614
-0.06701423 0.1998354 0.20465626 -0.36835328 -0.06250046 0.42461246 -0.16238171 -0.12965699
0.22005323 0.29711923 -0.026625786 0.44070372 -0.078926854 0.78862166 0.1354819 -0.6843416
0.5155075 0.31040445 0.26718286 0.5787843 0.14087334 0.25074926 0.39974147 0.5108994
0.25246236 0.11018499 0.49428052 0.51077634 0.2356197 0.50048244 -0.052673835 -0.36518592
-0.6399512 0.14663236 0.56422967 0.53916144 0.11570933 0.52923775 -0.52498 -0.26871017
0.38957354 0.027468368 0.038133666 0.11302958 -0.0829561 0.23942839 0.33239016 0.42901415
0.15274267 0.10209125 -0.06786918 0.4140303 0.5068106 0.45861995 0.6812275 0.30495322
-0.26245362 0.13296439 0.34931323 0.4456826 0.26654023 0.25527456 0.39902058 -0.019831767
0.40724525 0.46636233 0.118843324 0.32717133 -0.2396194 0.08876059 -0.11703276 0.19169919
-0.07632128 -0.30447435 -0.013022553 0.14953655 -0.16693975 -0.1473777 0.57035273 0.81724817
0.7279616 0.37598255 0.39158842 -0.40828153 -0.21680982 0.2801564 0.13302588 -0.25965908
0.09056715 0.14236313 -0.52849174 -0.30660212 0.31855366 0.27409396 0.31403205 0.47353753
0.49416056 0.40850165 0.09346019 0.012990582 -0.010953496 -0.091168396 0.28672856 0.201972
0.5657581 -0.047726423 0.3522088 -0.13473608 -0.09269863 0.65484434 -0.52980673 0.56016064
0.26248714 0.4552756 -0.08188616 -0.24772851 -0.18828024 0.4623167 0.17585959 -0.3119905
0.8731799 0.6900018 -0.1996861 -0.13309263 -0.1725264 -0.14089055 0.14891055 -0.13652672

l1.bias f4 [8]
00000000: 768f 1c3f a3c3 263f d63f 133f 4f58 403f
00000010: 4054 173f 78a0 073f 4241 2c3f 189e c53e
0.61156404 0.6514227 0.5751928 0.7513475 0.5911293 0.5297923 0.67287076 0.38597178

l2.weight f4 [8, 8]
00000000: 07aa 7b3f 17b6 5f3f 0f24 fa3e a7d8 95be
00000010: 583a af3e a28f 0e3f 1da8 dabe 69c1 483f
00000020: cb44 24bf 0252 883f 374e d03e 1e6d 953f
00000030: d523 443f bd79 72bf a805 de3e 839c 9dbf
00000040: 8bc3 033f b5c2 7abf 5102 3bbf bd59 893f
00000050: 7624 503f 481c 193f dfb4 2bbe 1e22 26be
00000060: 944d a6bd 5033 8d3d b5e9 afbe 70f5 e7bc
00000070: 286f 9b3d a1a6 21be 56d4 203e b684 383e
00000080: 17a5 c53c 1a8a 60be 3794 8bbe 1f6f 92be
00000090: f7e4 313e 7a6b 71bd e9f7 823c 2313 203e
000000a0: de7b 623f 6ef8 29bf 8fcd 303f 698c 023e
000000b0: 34ee 3ebf 5246 5a3f f8f7 853f edea 933f
000000c0: be2c 7a3f cf8a 073f f642 283e 0b9f e0be
000000d0: 5694 5d3f af5c b93e c2de 43bf fed7 b23e
000000e0: 9165 a73e f7f1 86bf 44a7 23bf 1733 813f
000000f0: e967 4d3f 64a6 803f 7753 ea3e dfa1 b5be
0.98306316 0.8738722 0.48855636 -0.29266855 0.342242 0.55687916 -0.42706385 0.7842012
-0.6416747 1.0650027 0.40684673 1.1673925 0.76617175 -0.9471701 0.4336369 -1.2313389
0.5147025 -0.9795335 -0.7305041 1.0730511 0.81305635 0.5980878 -0.16768216 -0.16223952
-0.081202656 0.06894553 -0.34357992 -0.028315276 0.07589561 -0.1578622 0.15706 0.18019375
0.024126573 -0.21927682 -0.27261516 -0.28600404 0.173725 -0.05894039 0.015987353 0.156323
0.88470256 -0.663947 0.6906366 0.12748875 -0.7458222 0.8526355 1.0466299 1.1556069
0.9772452 0.5294618 0.16431794 -0.4387134 0.8655447 0.36203524 -0.76511776 0.34930414
0.32694677 -1.0542592 -0.639271 1.0093716 0.8023668 1.0050778 0.45766804 -0.3547506

l2.bias f4 [8]
00000000: ccfa 923e 49e9 3c3f 3613 933e 57a0 abbe
00000010: ac7e 88be 056c 0dbe b2bf b43c 31f7 863d
0.28706968 0.73793465 0.28725594 -0.33520767 -0.26659143 -0.13810737 0.022064064 0.06590117

l3.weight f4 [5, 8]
00000000: 00f0 8bbe 180a 9cbf 0b6c bdbd 7c03 6bbe
00000010: 69b6 11be 24b5 2b3f 89f4 c5bf ccba 1b3f
00000020: 1ede 923e d752 92bf 4f3c 84bf 5214 a4be
00000030: f4fc b83d cb83 033f 1d3e a13e e1ad 59bf
00000040: 6fa3 9cbf cde9 f53d 4fb1 123f 00ce f73c
00000050: 594e 973e 8619 78bf 6225 90bf 8b3c 0c3f
00000060: 8f9d 1f3e 4f5e 7bbf 8882 b43e 7d5d 4dbe
00000070: b429 9ebe ac4c 91bf 6475 193f 994d e13e
00000080: e47c ee3d 0292 683f 219b b5be f058 e53d
00000090: b305 e43d 313f 55bf 8ed8 d4be 00cf 8ebf
-0.27331543 -1.219058 -0.09249123 -0.22950548 -0.1422974 0.67073274 -1.5465251 0.60831904
0.28685087 -1.1431531 -1.0330905 -0.32046753 0.09032622 0.51372975 0.314927 -0.85030943
-1.2237376 0.120074846 0.573018 0.030249596 0.29551962 -0.96913946 -1.1261408 0.5477988
0.15587448 -0.9819078 0.35255837 -0.20055194 -0.30891192 -1.1351523 0.5994475 0.44004515
0.11644915 0.9084779 -0.35469916 0.11198604 0.111338995 -0.8329955 -0.41571468 -1.1156921

l3.bias f4 [5]
00000000: 97ea dbbe 7091 55be dee3 02bf cc7b 29bf
00000010: 8ea3 263f
-0.42952415 -0.20856261 -0.5112895 -0.66204524 0.65093315
